public/books/llm-from-scratch/resources/model.pth (torch, 5492 bytes, 6 tensors)

layers.0.weight f4 [30, 2]
-0.17703024 0.6134871 0.035338305 -0.65365803 0.118882656 -0.030303005 -0.10700004 0.49598363
0.27883258 -0.35880488 -0.05705584 -0.470723 0.34880152 -0.42327616 -0.37302065 -0.015969839
0.44837993 0.6172984 -0.61427665 -0.68504536 0.53201467 -0.34918565 -0.6561134 -0.05333675
0.569613 -0.11844846 0.16484615 -0.6911547 0.48816895 0.617166 0.51257294 0.36633152
-0.3607414 -0.59318835 -0.0578705 0.54309064 -0.32735902 0.2382384 -0.055767614 -0.06573374
0.19599552 0.47361085 0.11578085 0.09258785 0.1756312 0.093674235 -0.20639339 -0.07275832
0.18128715 -0.5626104 0.019114288 -0.6639791 -0.6665473 0.056240413 0.098347306 0.13346061
-0.2610402 -0.07762261 -0.078367256 -0.023571637
00000000: 6a47 35be 7e0d 1d3f e6be 103d 2256 27bf
00000010: c078 f33d 023e f8bc d622 dbbd 91f1 fd3e
00000020: 25c3 8e3e 46b5 b7be 62b3 69bd 9b02 f1be
00000030: 1d96 b23e a7b7 d8be 90fc bebe 2ed3 82bc
00000040: 0e92 e53e 4507 1e3f 3c41 1dbf 225f 2fbf
00000050: 1d32 083f 76c8 b2be 0cf7 27bf a377 5abd
00000060: 28d2 113f 1b95 f2bd 6ecd 283e 84ef 30bf
00000070: 48f1 f93e 97fe 1d3f fb37 033f ce8f bb3e
00000080: 19b3 b8be 31db 17bf 9e09 6dbd fd07 0b3f
00000090: 9a9b a7be c4f4 733e 956c 64bd 699f 86bd
000000a0: 0db3 483e 1f7d f23e 831e ed3d b39e bd3d
000000b0: aad8 333e 47d8 bf3d ca58 53be 5002 95bd
000000c0: 57a3 393e 3c07 10bf 9195 9c3c 89fa 29bf
000000d0: d8a2 2abf 595c 663d 506a c93d e6a9 083e
000000e0: 10a7 85be 9af8 9ebd 037f a0bd 4e19 c1bc

layers.0.bias f4 [30]
-0.41635662 0.1837583 0.19633459 0.06442324 -0.055976044 0.36984956 0.48320132 -0.008416592
-0.50693536 -0.4923814 -0.0156165445 -0.6463328 -0.5129504 -0.16792375 -0.2573048 -0.076938234
0.17120567 0.5342566 0.7255255 -0.28279042 -0.7054396 0.47058663 0.63782114 0.69464236
0.1631954 0.45774767 0.01672025 -0.501126 -0.5689769 -0.4241501
00000000: b22c d5be 232b 3c3e ef0b 493e 55f0 833d
00000010: 2347 65bd ec5c bd3e 2a66 f73e bfe5 09bc
00000020: 84c6 01bf 6a19 fcbe 89dc 7fbc 1176 25bf
00000030: b850 03bf 34f4 2bbe 74bd 83be cb91 9dbd
00000040: 8a50 2f3e 0ac5 083f 0abc 393f e8c9 90be
00000050: b197 34bf bbf0 f03e 3f48 233f 15d4 313f
00000060: b21c 273e e75d ea3e e8f8 883c cb49 00bf
00000070: 78a8 11bf 342a d9be

layers.2.weight f4 [20, 30]
0.027671782 -0.04624353 0.04668524 0.064174965 -0.1157083 0.014560542 0.1769105 0.12027262
-0.020331822 -0.038156785 -0.071255185 0.059831154 -0.11018579 0.18084112 0.0025787714 -0.117967285
-0.088592924 -0.07031367 -0.14496595 -0.05706701 -0.17527671 0.061809942 -0.059461545 0.044370517
-0.08942335 -0.08260182 -0.089245014 -0.0016230687 -0.13898098 -0.16236296 0.017981816 -0.13622369
0.15237726 0.11721893 0.12983836 0.1378012 -0.064106874 0.022766933 0.02887341 0.15920499
-0.12388277 -0.052500833 0.11325075 0.12223027 -0.17760889 0.17444211 0.12140228 0.12738173
-0.09294947 -0.092702 0.039358046 0.14224577 0.16238222 -0.12539428 0.14601025 0.0010710349
-0.09707286 0.10728459 0.08554979 0.040956877 -0.1268185 0.19665366 -0.021018764 -0.0071196635
-0.029195758 -0.13640237 0.014727466 0.03347422 0.007782476 -0.042721026 0.1738372 -0.026680408
-0.114375226 -0.04382487 -0.04446046 0.1314798 0.14347364 0.04604792 0.16121836 0.17438254
0.035818763 0.13705353 0.091340356 0.026172396 0.19889994 -0.012537871 -0.15188137 -0.16135529
0.11267321 -0.12827758 0.07841382 -0.0104032755 -0.17201813 -0.05884413 0.06551272 0.0005769126
0.071033314 -0.07053972 -0.08316461 -0.013338594 -0.16083576 -0.03717888 0.010080725 0.07417246
-0.05651469 0.11535125 -0.0046388283 -0.04725547 -0.050935246 0.12562287 0.011003062 -0.10269417
-0.105593204 -0.00065034616 0.04260428 -0.112214394 -0.16541646 0.075140566 0.05520978 -0.102139674
-0.105060294 0.14185129 -0.121839374 0.12238503 -0.115538836 0.06945203 -0.0093266275 0.067140736
0.07866548 -0.07970529 -0.16155693 -0.0029206704 0.031118806 -0.020497821 0.06416646 0.17793539
-0.07468819 0.052137434 0.049405385 0.104364224 -0.081395015 -0.17926489 -0.11149131 0.008856294
-0.18109378 0.15387098 0.14346594 0.042822707 -0.13200608 -0.17369266 0.19974707 -0.16033167
0.05877858 0.26851353 -0.15512419 0.041355703 -0.09274273 0.09109481 0.13696228 -0.0039505465
-0.050054003 -0.039305057 0.008165216 -0.010328088 0.15047176 0.16906412 0.047523983 0.27420112
-0.064511605 -0.0813861 -0.120663874 -0.065712616 0.17237431 -0.12073772 0.046624344 -0.1164096
0.062000155 -0.11879825 -0.102160044 0.016442783 0.018017665 -0.15348679 -0.0054879286 -0.06954478
-0.12515792 -0.15053912 0.051066943 0.023656769 0.10642137 0.14157254 0.065826304 -0.060076438
0.113291696 0.056642167 0.13648842 0.09673249 0.04188949 0.09010214 -0.17953183 0.094747
0.121963836 -0.02436736 -0.15830716 0.11654116 0.009334506 -0.05109084 -0.028093535 0.14220336
-0.06093483 0.1794685 0.13133639 0.069098294 0.09597596 -0.12119396 -0.1501808 0.13293108
0.11696239 -0.14043519 -0.111608274 0.07604943 0.05995112 0.11501163 -0.12624197 0.0903051
0.015188666 -0.13900349 0.18118596 -0.033564117 -0.07991325 -0.15006715 -0.06258589 -0.088811986
-0.0066300007 -0.13451545 -0.1701291 -0.17279473 -0.103066295 -0.06678144 0.023534758 0.04455965
0.08146669 -0.12035405 0.10822346 0.083949216 -0.1503197 -0.1225816 -0.09927696 -0.0154939
-0.18572383 0.026558135 0.07447956 0.1309171 0.11297815 -0.09141293 -0.1341362 0.09643691
00000000: efaf e23c db69 3dbd 0639 3f3d 2a6e 833d
00000010: 79f8 ecbd 578f 6e3c 0728 353e 7e51 f63d
00000020: ec8e a6bc 4a4a 1cbd 3dee 91bd 8311 753d
00000030: 16a9 e1bd 6a2e 393e 9b00 293b d598 f1bd
00000040: 3570 b5bd 9d00 90bd f471 14be 19bf 69bd
00000050: bd7b 33be 6c2c 7d3d f38d 73bd dcbd 353d
00000060: 9723 b7bd 252b a9bd 17c6 b6bd 26bd d4ba
00000070: 0851 0ebe 7a42 26be 9a4e 933c 397e 0bbe
00000080: c908 1c3e 7a10 f03d 59f4 043e c21b 0d3e
00000090: 774a 83bd b881 ba3c ee87 ec3c a206 233e
000000a0: 40b6 fdbd 1d0b 57bd 02f0 e73d dd53 fa3d
000000b0: 1bdf 35be f4a0 323e c2a1 f83d 5b70 023e
000000c0: 4b5c bebd 8cda bdbd e735 213d e0a8 113e
000000d0: 8647 263e 5c67 00be b683 153e f861 8c3a
000000e0: 23ce c6bd 06b8 db3d ba34 af3d 66c2 273d
000000f0: b5dc 01be 945f 493e 8b2f acbc 114c e9bb
00000100: f12b efbc 10ad 0bbe 784b 713c 441c 093d
00000110: 2404 ff3b 3efc 2ebd 6102 323e df90 dabc
00000120: 8f3d eabd b581 33bd 2c1c 36bd a4a2 063e
00000130: c1ea 123e be9c 3c3d 6d16 253e 5691 323e
00000140: b2b6 123d c357 0c3e a710 bb3d 7e67 d63c
00000150: 6dac 4b3e a46b 4dbc ca86 1bbe 523a 25be
00000160: 36c1 e63d 335b 03be 6d97 a03d 8072 2abc
00000170: 8525 30be 8b06 71bd 882b 863d f33b 173a
00000180: ea79 913d 2177 90bd 3552 aabd 1e8a 5abc
00000190: 21b2 24be e248 18bd a029 253c bbe7 973d
000001a0: f37b 67bd 473d ec3d 5001 98bb f48e 41bd
000001b0: 7aa1 50bd 48a3 003e 3046 343c 5251 d2bd
000001c0: 4041 d8bd fe7b 2aba d381 2e3d a9d0 e5bd
000001d0: ef62 29be 4ce3 993d a623 623d 9b2e d1bd
000001e0: da29 d7bd 7741 113e ec86 f9bd 01a5 fa3d
000001f0: a09f ecbd de3c 8e3d b6ce 18bc 1581 893d
00000200: 5e1b a13d 873c a3bd 2e6f 25be b868 3fbb
00000210: deec fe3c 0ceb a7bc b469 833d b234 363e
00000220: 1ff6 98bd 108e 553d 4d5d 4a3d e9bc d53d
00000230: 6eb2 a6bd 3791 37be 8e55 e4bd fd19 113c
00000240: a670 39be 5b90 1d3e bce8 123e dd66 2f3d
00000250: 9a2c 07be 7ddc 31be 7f8a 4c3e fc2d 24be
00000260: cfc1 703d 9b7a 893e e0d8 1ebe 9964 293d
00000270: e7ef bdbd ea8f ba3d d73f 0c3e 9673 81bb
00000280: 6d05 4dbd 57fe 20bd 66c7 053c 2437 29bc
00000290: 4515 1a3e 251f 2d3e 82a8 423d 1764 8c3e
000002a0: a91e 84bd c1ad a6bd 9f1e f7bd 5694 86bd
000002b0: e482 303e 5645 f7bd 2bf9 3e3d 2868 eebd
000002c0: e0f3 7d3d 7f4c f3bd 4939 d1bd 04b3 863c
000002d0: c899 933c a42b 1dbe 15d4 b3bb 7e6d 8ebd
000002e0: 6629 00be ed26 1abe 922b 513d d7cb c13c
000002f0: 72f3 d93d 64f8 103e f1cf 863d b612 76bd
00000300: 7a05 e83d 9e01 683d 9fc3 0b3e af1b c63d
00000310: 5094 2b3d 7987 b83d 31d7 37be b70a c23d
00000320: 2dc8 f93d 0f9e c7bc 461b 22be 22ad ee3d
00000330: c1ef 183c a144 51bd 6a24 e6bc c29d 113e
00000340: cd96 79bd 97c6 373e 0c7d 063e 6883 8d3d
00000350: 0b8f c43d 8a34 f8bd ffc8 19be 161f 083e
00000360: fa89 ef3d 3ece 0fbe e192 e4bd cebf 9b3d
00000370: 4e8f 753d 388b eb3d 9345 01be e1f1 b83d
00000380: e2d9 783c ee56 0ebe d088 393e 877a 09bd
00000390: 8fa9 a3bd 34ab 19be 082d 80bd 0fe3 b5bd
000003a0: 7a40 d9bb 6bbe 09be 5336 2ebe 1af1 30be
000003b0: 6c14 d3bd b5c4 88bd f7cb c03c 2e84 363d
000003c0: 02d8 a63d 2f7c f6bd 43a4 dd3d 91ed ab3d
000003d0: 68ed 19be 100c fbbd b851 cbbd 20da 7dbc
000003e0: 632e 3ebe 7290 d93c bd88 983d 220f 063e
000003f0: 1761 e73d b436 bbbd 005b 09be b780 c53d

layers.2.bias f4 [20]
0.01365888 -0.07167724 0.14275227 -0.10107567 -0.11189228 0.14498916 -0.14297605 -0.062621586
0.05470281 -0.00028712302 0.02489339 0.1421416 -0.0029869806 0.16052839 -0.062705286 0.010016897
0.17894568 -0.13657226 -0.13272579 0.13373947
00000000: 7fc9 5f3c 84cb 92bd a72d 123e c300 cfbd
00000010: c827 e5bd 0a78 143e 5068 12be bf3f 80bd
00000020: 0e10 603d 0089 96b9 39ed cb3c 918d 113e
00000030: 38c1 43bb 8e61 243e a16b 80bd e91d 243c
00000040: 893d 373e 99d9 0bbe 45e9 07be 00f3 083e

layers.4.weight f4 [2, 20]
-0.15061302 0.056933314 -0.2668023 0.21599011 0.08379453 0.37048644 -0.21709782 0.059146535
0.021330882 0.24446869 -0.26946092 0.22333339 -0.022970155 0.059815515 -0.13104294 0.50177896
-0.4029303 0.09549886 0.110957205 0.24699342 0.0640591 0.20030509 -0.01177074 0.16403793
0.04577206 -0.18038161 0.08847667 -0.020685222 0.14763835 -0.13022597 0.32896775 0.19925563
0.3108523 0.053646367 -0.016277727 -0.5166383 0.010831013 0.098798424 0.020779956 -0.07414772
00000000: 4d3a 1abe e832 693d 509a 88be 832c 5d3e
00000010: 779c ab3d 66b0 bd3e e44e 5ebe a343 723d
00000020: 1abe ae3c 0056 7a3e c8f6 89be 82b1 643e
00000030: e82b bcbc 1d01 753d 1f30 06be 9674 003f
00000040: e14c cebe e894 c33d 883d e33d d8eb 7c3e
00000050: 6b31 833d c71c 4d3e 10da 40bc 8ff9 273e
00000060: 7c7b 3b3d f5b5 38be 4233 b53d 0e74 a9bc
00000070: 822e 173e f559 05be 766e a83e ab09 4c3e
00000080: 0828 9f3e 4bbc 5b3d de58 85bc 6842 04bf
00000090: 9074 313c d456 ca3d ba3a aa3c c3da 97bd

layers.4.bias f4 [2]
-0.3987155 0.32192433
00000000: 7024 ccbe 44d3 a43e
